mlbb_ann_model.pth (torch, 41550 bytes, 6 tensors)

fc1.weight f4 [128, 9]
0	0xbe58388c	-0.21115321
1	0x3df06556	0.11738078
2	0xbd823487	-0.06357675
3	0x3e5f3a11	0.21799494
4	0xbcbd0f9b	-0.02307873
5	0xbde1e844	-0.11030629
6	0xbdcd4a0c	-0.10023889
7	0x3ebd8265	0.37013546
8	0xbe178235	-0.14795764
9	0xbe5ab4c5	-0.2135802
10	0x3d81f971	0.06346405
11	0x3dc3f85d	0.09568856
12	0xbec5e872	-0.38653904
13	0xbd2241dd	-0.039613593
14	0x3ec8f719	0.3925102
15	0xbcae8171	-0.021301957
16	0xbec1f2d1	-0.37880567
17	0x3d52bd8c	0.051450297
18	0x3e82a133	0.2551361
19	0x3e107098	0.14105451
20	0x3ce76756	0.028247517
21	0x3db56730	0.08857572
22	0xbe7c5c1b	-0.2464451
23	0x3de28a16	0.11061494
24	0xbe16cfe0	-0.14727736
25	0xbbae6400	-0.0053219795
26	0xbe552b88	-0.20817387
27	0xbe0d27d0	-0.13784719
28	0x3e2f1d10	0.1710093
29	0x3ddb73a7	0.10715418
30	0x3c038bf0	0.008028969
31	0x3e7ee298	0.24891126
32	0x3e98d4e5	0.29849926
33	0x3dda2c64	0.10652998
34	0xbdb43e15	-0.08800904
35	0x3e3fe632	0.18740156
36	0x3e467a55	0.19382603
37	0xbd2107eb	-0.03931419
38	0xbe0a5583	-0.13509183
39	0xbeabfe10	-0.33592272
40	0xbe735be9	-0.2376553
41	0x3e801a8b	0.2502025
42	0x3e8a3db9	0.27000216
43	0xbd8ee62c	-0.069774956
44	0x3ea895f5	0.32926908
45	0xbe6cde39	-0.23131646
46	0x3dbc5bb7	0.09197181
47	0xbe9e9ca5	-0.30978885
48	0x3e899f02	0.26879126
49	0x3eab72d0	0.33486032
50	0xbda7f7a9	-0.08201534
51	0x3e922e2e	0.28550857
52	0x3e816c16	0.25277776
53	0xbe577461	-0.21040489
54	0x3ea14780	0.31499863
55	0xbeb76c64	-0.35824883
56	0x3e23fd47	0.16014586
57	0x3ec879ad	0.3915533
58	0xbe0466e3	-0.12929873
59	0x3e2bd9fd	0.16782375
60	0x3d975cc3	0.0739074
61	0x3e6a121c	0.2285847
62	0x3d22cfd2	0.039748974
63	0xbec42abf	-0.38313863
64	0x3d88c361	0.066778906
65	0xbea0efd6	-0.3143298
66	0x3aed0b31	0.0018085
67	0xbdb0dfd8	-0.08636445
68	0x3dbaa36f	0.09113204
69	0x3e8e2b7e	0.27767557
70	0xbe340f7e	-0.17584035
71	0x3e36bd23	0.17845587
72	0xbe8e1a10	-0.2775426
73	0x3e2ec43a	0.17067042
74	0x3e5b85c7	0.21437751
75	0xbe91c503	-0.2847062
76	0x3d8ca4b1	0.0686735
77	0xbd145f10	-0.03622347
78	0xbd85f293	-0.06540408
79	0xbdcef930	-0.101061225
80	0x3e1add02	0.1512337
81	0xbd78044d	-0.060550977
82	0xbd0eb2dc	-0.034838542
83	0x3e001665	0.12508543
84	0x3ebe3d9d	0.37156382
85	0x3d54ca43	0.051950704
86	0xbe7f6bb4	-0.24943429
87	0x3d2ffe76	0.042967282
88	0x3e2aad88	0.1666776
89	0x3e083ba6	0.13304004
90	0xbda89580	-0.0823164
91	0xbe5753a5	-0.21028002
92	0x3dec65c0	0.11542845
93	0xbe8aee81	-0.2713509
94	0x3d785d57	0.06063589
95	0xbe01b282	-0.12665752
96	0xbdb91400	-0.09037018
97	0xbe809cf9	-0.2511976
98	0x3ba64924	0.005074637
99	0xbea1187c	-0.31463993
100	0xbe2d704e	-0.16937372
101	0x3da46cc0	0.08028555
102	0x3c8790c0	0.016548514
103	0xbbc2fa56	-0.0059502525
104	0xbd920286	-0.071293876
105	0xbd9a2a96	-0.07527654
106	0xbd7bc16b	-0.061463755
107	0x3e013e73	0.12621479
108	0xbcde49fe	-0.027134892
109	0xbda2bb48	-0.07945877
110	0xbbad8def	-0.005296461
111	0xbd8317d0	-0.06401026
112	0xbe27ca4d	-0.16385765
113	0x3ec8ba5e	0.39204687
114	0x3e3ef170	0.18646789
115	0xbe04bc5b	-0.12962477
116	0xbd8c173d	-0.0684037
117	0x3d6cfafe	0.057856552
118	0x3dd4dd2a	0.10393746
119	0x3e5ae0cf	0.2137482
120	0x3eb2572d	0.34832135
121	0x3cdf7904	0.027279384
122	0xbe63f63a	-0.22261897
123	0x3e9ca647	0.3059561
124	0x3e0509f3	0.12992077
125	0xbe8b5c93	-0.27219066
126	0x3e9c1423	0.30484113
127	0xbe93119a	-0.28724366
128	0x3e2292d4	0.15876323
129	0x3cbcbbca	0.023038764
130	0x3e933058	0.2874782
131	0xbda904ac	-0.08252844
132	0x3e51e4e3	0.2049747
133	0x3e5feecf	0.21868442
134	0xbcc3bd27	-0.023893906
135	0x3d3d1927	0.046166565
136	0x3df5ecd4	0.12008062
137	0x3db70d54	0.08938089
138	0xbe74b8b9	-0.23898591
139	0x3e54c9f3	0.20780163
140	0xbead24df	-0.33817193
141	0x3e510d86	0.20415315
142	0x3e1fdd64	0.15611798
143	0xbd4230f2	-0.04740996
144	0xbe35f3e3	-0.17768817
145	0x3e7a6938	0.244542
146	0xbe552ac6	-0.20817098
147	0xbe36c380	-0.17848015
148	0x3e9116b0	0.28337622
149	0xbcfd7056	-0.030937355
150	0xbe794890	-0.24344087
151	0x3e13cfd6	0.14434752
152	0x3d3ee3eb	0.04660408
153	0x3e8ac8df	0.27106377
154	0xbd5bdda2	-0.053678162
155	0x3e9c3c85	0.30514923
156	0xbeb38b50	-0.35067225
157	0xbcf0ea48	-0.029408589
158	0x3db46ead	0.08810172
159	0x3d8af309	0.067846365
160	0x3e68939c	0.22712559
161	0x3cd59c95	0.02607564
162	0x3e3089c8	0.1724006
163	0xbe8586f3	-0.2607952
164	0xbe9cbae0	-0.30611324
165	0x3e38aa9e	0.18033835
166	0xbddb8ca6	-0.10720186
167	0x3df1c58b	0.118052565
168	0xbe908d20	-0.2823267
169	0xbe41fc93	-0.18944006
170	0x3e9cf802	0.30657965
171	0x3e1a6627	0.1507803
172	0xbe7c08e3	-0.24612765
173	0xbe45d41c	-0.19319195
174	0xbe60b3fb	-0.21943657
175	0x3e83c4b7	0.2573602
176	0xbe02d498	-0.1277641
177	0xbda788ca	-0.08180387
178	0xbecaa1a1	-0.39576438
179	0x3da16791	0.07881082
180	0xbe90d6a8	-0.2828877
181	0xbd5ec0e8	-0.05438319
182	0xbd92ce3d	-0.07168243
183	0xbd987e04	-0.074459106
184	0x3d920169	0.07129175
185	0x3d38adc8	0.045087606
186	0x3c17eed4	0.00927325
187	0xbe889903	-0.2667924
188	0x3e58fb61	0.21189643
189	0xbea682fe	-0.32521814
190	0xbb9e3b97	-0.004828881
191	0x3d1b5805	0.03792574
192	0x3e53669b	0.2064461
193	0xbe8e0d3a	-0.27744466
194	0x3e9ef751	0.31048062
195	0x3d344988	0.044015437
196	0xbe2d8ced	-0.1694829
197	0x3db98149	0.09057862
198	0xbe9f66a8	-0.31133008
199	0xbe9a7997	-0.3017089
200	0xbe9c4700	-0.3052292
201	0xbd808a20	-0.06276345
202	0x3c36ce56	0.011157593
203	0x3e79e8db	0.24405234
204	0xbea8f36e	-0.32998222
205	0xbe40467b	-0.18776886
206	0xbc2ab7ab	-0.010419766
207	0xbd5e5615	-0.054281313
208	0x3dc6ccc6	0.09707026
209	0xbd949e0f	-0.0725671
210	0xbebfb495	-0.3744246
211	0xbd58065c	-0.05274044
212	0xbd6139d9	-0.05498681
213	0x3d1eefb4	0.038802817
214	0xbe82dc01	-0.25558475
215	0x3e3e8067	0.18603669
216	0xbc836d96	-0.016043466
217	0x3e37127e	0.17878148
218	0xbc57c280	-0.013168931
219	0x3d8db1a0	0.06918645
220	0xbdeaa0a6	-0.114564225
221	0xbddd8646	-0.10816626
222	0xbe05057b	-0.12990372
223	0xbd04138b	-0.0322452
224	0x3e5e5c90	0.21714997
225	0xbe98dd0a	-0.2985614
226	0xbe9da70b	-0.30791506
227	0xbe8de41e	-0.27713102
228	0x3dfaab5a	0.12239714
229	0x3cddc9b2	0.027073715
230	0x3dac0e38	0.084011495
231	0x3e770297	0.24122082
232	0xbdd46c88	-0.10372263
233	0xbe81956b	-0.2530931
234	0xbd02f196	-0.031968676
235	0x3d484456	0.048893295
236	0xbe1ae618	-0.15126836
237	0x3e411e76	0.18859276
238	0x3d58780b	0.052848857
239	0x3ce41c6b	0.027845582
240	0xbea9f26e	-0.33192772
241	0xbe72792e	-0.23679039
242	0xbe824432	-0.25442654
243	0x3e3d0ca4	0.18461853
244	0x3d47e51f	0.04880249
245	0x3dbb0bce	0.09133111
246	0x3deb02a5	0.11475114
247	0xbea316e4	-0.31853402
248	0x3dfb04de	0.12256788
249	0x3d8edac9	0.06975324
250	0x3e96942c	0.2940992
251	0x3e5d962e	0.2163932
252	0xbdad32ab	-0.0845693
253	0x3d452886	0.04813435
254	0xbe7cbc18	-0.24681127
255	0x3eb6fbdb	0.35739025

fc1.bias f4 [128]
0	0xbd736ed7	-0.059431877
1	0x3e5ec50c	0.21754855
2	0xbe93dfd2	-0.288817
3	0x3db57283	0.08859732
4	0x3e86fb7d	0.26363745
5	0xbe1758a4	-0.14779907
6	0x3d952fca	0.07284506
7	0xbe035d4b	-0.12828557
8	0x3e287235	0.16449817
9	0xbd3ad34c	-0.045611665
10	0x3e4c7c89	0.19969381
11	0xbe01b5ce	-0.12667009
12	0x3dd0468f	0.10169708
13	0xbe4868b1	-0.19571187
14	0xbdd0c429	-0.101936646
15	0xbe4628d4	-0.19351512
16	0xbea2e34e	-0.31814045
17	0xbe2a3ff4	-0.16625959
18	0xbea4297e	-0.32062906
19	0x3d7095c7	0.05873659
20	0x3e878335	0.2646729
21	0x3d3f0384	0.046634212
22	0xbea3e3f8	-0.32009864
23	0xbd15bdc8	-0.036557943
24	0xbe841e03	-0.25804147
25	0x3e6f0111	0.2334025
26	0xbe9f4d38	-0.311136
27	0xbe455075	-0.19268973
28	0x3e33cbba	0.17558184
29	0xbe2201dd	-0.15821023
30	0x3e4ad0a2	0.1980615
31	0xbe1b9abf	-0.1519575
32	0xbd896fd3	-0.06710782
33	0x3e4098d7	0.18808304
34	0xbb875e37	-0.0041311043
35	0xbe6516c6	-0.22371969
36	0x3c5943e5	0.013260816
37	0x3dea8584	0.11451247
38	0xbe474a20	-0.1946187
39	0x3e7e6700	0.24843979
40	0x3ddcc495	0.107796825
41	0xbe58eb57	-0.21183525
42	0x3d3940d8	0.045227855
43	0x3d201fbd	0.039092768
44	0x3dc8dc5f	0.098076575
45	0x3e83e860	0.25763226
46	0x3c975397	0.018472476
47	0x3e5939ff	0.2121353
48	0x3e8fa224	0.2805339
49	0xbea03e27	-0.31297418
50	0x3e87fca9	0.26559952
51	0xbe36fe90	-0.17870545
52	0xbeaa26b3	-0.3323265
53	0xbea3fcf7	-0.32028934
54	0xbe25cd28	-0.16191542
55	0x3e88c1c6	0.26710337
56	0x3e244272	0.16040972
57	0xbe2b699c	-0.16739506
58	0xbe9fca62	-0.31209093
59	0x3d8f6be4	0.070030004
60	0x3d662fbd	0.05619787
61	0xbda64b40	-0.081198215
62	0xbcc46bc9	-0.023977177
63	0x3eb1042c	0.34573495
64	0x3e1a9a8d	0.15098019
65	0x3e9b3125	0.30310932
66	0x3e07acdd	0.13249536
67	0x3d97f750	0.07420218
68	0x3e5eaefe	0.21746442
69	0x3debd7a7	0.11515742
70	0x3df98fbb	0.121856175
71	0xbd32424b	-0.043520253
72	0x3eaa3821	0.33245948
73	0x3e202a76	0.15641198
74	0xbe151478	-0.1455859
75	0x3d8a2e8c	0.06747159
76	0x3e3ce243	0.18445687
77	0xbe2df73f	-0.16988848
78	0x3eabc497	0.33548424
79	0xbe663eb7	-0.22484861
80	0xbe4c13b5	-0.19929393
81	0x3e9525e4	0.2913047
82	0xbdc74a1a	-0.097309306
83	0xbe961cde	-0.293189
84	0xbd84375f	-0.06455874
85	0x3bae58e2	0.0053206543
86	0x3d37a6f2	0.044836946
87	0x3e1d7671	0.15377213
88	0xbe197c13	-0.14988737
89	0x3e7ea1a1	0.24866344
90	0xbe817e36	-0.25291604
91	0x3d5ea2d6	0.05435451
92	0xbdf845ab	-0.12122663
93	0x3e9d6bfc	0.30746448
94	0x3e1c2949	0.15250124
95	0xbdfc0c31	-0.12307013
96	0x3d37a6d8	0.04483685
97	0xbe97a6d8	-0.2961948
98	0xbea0fdfc	-0.31443775
99	0x3e48ffdc	0.19628853
100	0x3e3634c0	0.1779356
101	0xbe4a2a70	-0.19742751
102	0x3e28f098	0.16498029
103	0xbe827dfa	-0.25486737
104	0x3d1899dc	0.037256107
105	0xbafad280	-0.001913622
106	0x3e45f7ee	0.19332859
107	0x3bfd4288	0.0077288784
108	0xbd5e97f6	-0.05434414
109	0xbe2a9c34	-0.1666115
110	0x3e9bc0b9	0.30420473
111	0xbe92151d	-0.28531733
112	0xbd3183fc	-0.04333876
113	0xbe26ecde	-0.16301295
114	0x3e8d5cf1	0.2760997
115	0xbe84d004	-0.25939953
116	0x3e742eff	0.23846053
117	0x3ea61b58	0.32442737
118	0x3ea396c3	0.3195096
119	0x3e0254bb	0.12727635
120	0x3e224cad	0.15849562
121	0x3ddba21d	0.1072428
122	0xbe899a08	-0.2687533
123	0xbeaa58fe	-0.3327102
124	0xbe6eeeb0	-0.2333324
125	0x3e5cb553	0.21553545
126	0x3d04ca81	0.032419685
127	0x3b686576	0.0035460866

fc2.weight f4 [64, 128]
0	0x3dab875e	0.083754286
1	0x3ca82cd8	0.020529196
2	0xbca4f45a	-0.020136047
3	0xbd33edd0	-0.043927968
4	0x3d969f54	0.07354608
5	0xbdb040fe	-0.08606146
6	0x3dad1aa6	0.084523484
7	0xbc79295c	-0.015207615
8	0xbcd52e62	-0.026023094
9	0xbbdd6e88	-0.006757561
10	0x3d6fb712	0.0585242
11	0xbbc9cff6	-0.006158824
12	0xbc57566f	-0.013143166
13	0xbd15c0a7	-0.03656068
14	0x3da752c0	0.0817008
15	0x3af2ae97	0.0018515167
16	0xbc938002	-0.018005375
17	0x3d91fc44	0.07128194
18	0x3bc15661	0.0059001897
19	0xbdf055de	-0.11735128
20	0x3d8c0bd9	0.06838197
21	0x3c9f2797	0.019428058
22	0x3d44ca76	0.048044644
23	0xbdc35a59	-0.09538717
24	0xbd42ad57	-0.04752859
25	0xbdb57dfa	-0.08861919
26	0xbc9522d1	-0.018205078
27	0x3d0a0931	0.03370017
28	0x3d4ea3aa	0.05044905
29	0xbcdb3880	-0.02676034
30	0xbdb5d6eb	-0.08878883
31	0xbc1dcaf1	-0.0096309045
32	0x3d934075	0.071900286
33	0xbdb3ffd4	-0.0878903
34	0xbc2f952c	-0.010716718
35	0xbd59f7da	-0.053214885
36	0xbc148746	-0.009065455
37	0x3e17e4bd	0.1483335
38	0xbcb43572	-0.021998141
39	0x3d936b2a	0.07198174
40	0xbd0b8920	-0.03406632
41	0xbdb7405b	-0.08947822
42	0x3cad7b67	0.021177007
43	0xbc5b9604	-0.013402466
44	0xbbcfd34c	-0.006342327
45	0x3c1fb54e	0.009747816
46	0xbd5accaf	-0.053417858
47	0xbce802a6	-0.028321575
48	0xbc8765de	-0.016528066
49	0xbda73859	-0.08165044
50	0x3d20f196	0.039292894
51	0x3d34e895	0.04416712
52	0x3bf5c76c	0.0075005796
53	0x3d645350	0.055743515
54	0xbc345d5d	-0.011008588
55	0x3dcc7688	0.099835455
56	0xbd0628ac	-0.03275363
57	0xbdb2d939	-0.08732838
58	0xbd88bfce	-0.06677209
59	0x3d9303d5	0.07178465
60	0x3d085b0f	0.033289965
61	0xbd648082	-0.055786617
62	0xbd9933f2	-0.07480611
63	0x3e0819da	0.13291112
64	0xbd2a0c6b	-0.04151575
65	0x3d0ebafb	0.034846287
66	0xbdabae07	-0.083828025
67	0xbd5c9869	-0.053856287
68	0x3b2d60c5	0.0026455384
69	0xbd72910d	-0.059220362
70	0x3dd4d845	0.10392813
71	0x3e1f2520	0.15541506
72	0xbbb247a4	-0.005440669
73	0x3d43e8b5	0.04782935
74	0x3c73c2d0	0.01487799
75	0xbcca4f6d	-0.024696076
76	0xbd9127bf	-0.07087659
77	0x3df132e3	0.11777284
78	0xbb1e7bea	-0.0024182745
79	0x3c4d1474	0.012517083
80	0xbd0a4adb	-0.033762794
81	0xbdace0ea	-0.084413365
82	0xbd26f539	-0.040761206
83	0xbd163836	-0.0366747
84	0x3da78823	0.08180263
85	0xbd8cd4a7	-0.06876498
86	0xbd8a7919	-0.06761379
87	0xbe0c5770	-0.1370523
88	0xbc973751	-0.018458994
89	0xbd19bca2	-0.03753341
90	0x3acf2086	0.001580254
91	0x3d98326f	0.074314944
92	0xbd3d8753	-0.046271633
93	0xbd5fe3dd	-0.054660667
94	0x3d3fef7d	0.046859253
95	0xbd3d3ae7	-0.04619875
96	0xbd7fa9c5	-0.062417764
97	0xbc0db3d1	-0.008648829
98	0xbbb22c03	-0.0054373755
99	0x3d8ff2cc	0.07028732
100	0xbcd40b64	-0.025884338
101	0xbdb31d28	-0.087457955
102	0x3ce15342	0.02750552
103	0xbcde9501	-0.02717066
104	0x3ddf062d	0.1088985
105	0xbd03bbd0	-0.032161534
106	0x3e27f3fb	0.16401665
107	0xbbe404b6	-0.0069585694
108	0xbd922016	-0.07135026
109	0xbdcc434a	-0.09973772
110	0xbd82b318	-0.06381816
111	0xbcff947e	-0.031198736
112	0xbd6793b0	-0.05653733
113	0x3cd3d4c5	0.025858292
114	0x3d1e0fd3	0.03858931
115	0x3c4cdea4	0.012504254
116	0x3ba23658	0.004950326
117	0xbdb89a5f	-0.09013819
118	0xbc924f4e	-0.017860081
119	0xbd82bfc4	-0.06384233
120	0x3dc0caa3	0.0941365
121	0x3de68690	0.112561345
122	0x3b03bf86	0.002010317
123	0xbd49e2d2	-0.04928858
124	0xbd21e4c4	-0.03952481
125	0xbb8f9105	-0.0043813013
126	0x3e219c66	0.15782318
127	0x3b9e51e2	0.0048315385
128	0xbd066acf	-0.032816704
129	0xbc826547	-0.015917433
130	0xbc7a9cae	-0.015296144
131	0x3c4062d9	0.011742317
132	0xbc9b87af	-0.018985597
133	0x3d29365b	0.041311603
134	0xbd3b3b65	-0.04571094
135	0xbcdd11cb	-0.026986023
136	0xbdb2aa4c	-0.08723888
137	0xbd741c2a	-0.05959717
138	0xbd87f7f5	-0.06639091
139	0xb93967d6	-0.00017681657
140	0x3d87bd6e	0.06627928
141	0x3c65710c	0.014004003
142	0x3b94192d	0.0045196027
143	0xbce6b74c	-0.028163575
144	0xbda2ffe9	-0.07958967
145	0xbca99e2a	-0.020705301
146	0x3d2431b0	0.04008645
147	0x3c4bde78	0.012443177
148	0xbd545ffb	-0.051849347
149	0x3d23c799	0.039985273
150	0xbb3e0487	-0.0028994398
151	0xbd4c701c	-0.049911603
152	0x3d63e271	0.055635873
153	0x3d6ecae3	0.058298957
154	0x3ce88b5d	0.028386766
155	0xbd799be9	-0.060939703
156	0xbda13277	-0.078709535
157	0xbd5482a8	-0.051882416
158	0xbd1dd563	-0.03853358
159	0x3d87f407	0.066383414
160	0xbcc6ae17	-0.024252934
161	0x3d9304ff	0.07178687
162	0x3d929762	0.0715778
163	0xbd40ad23	-0.047040116
164	0x3d43a98d	0.047769118
165	0xbcd08026	-0.025451731
166	0x3d07ef1c	0.033187017
167	0x3d15883a	0.03650687
168	0x3d21fa9c	0.03954564
169	0xbd07d39a	-0.033160783
170	0x3c960681	0.018313648
171	0x3d5a6c18	0.053325742
172	0xbd93206a	-0.07183917
173	0x3d2e9fea	0.042632975
174	0xbdb31232	-0.08743705
175	0xbd0dfb38	-0.03466341
176	0x3d1ba349	0.037997518
177	0x3d025117	0.031815615
178	0xbd274241	-0.04083467
179	0xbb9c4d1d	-0.004769935
180	0xbd8cb4cb	-0.06870421
181	0x3d2ca04e	0.042145066
182	0xbd8a0bbe	-0.06740521
183	0xbdb94671	-0.09046639
184	0xbb7913ac	-0.003800611
185	0x3d35196b	0.044213694
186	0x3ce9f194	0.028557576
187	0xbc90141e	-0.017587718
188	0xbd7f8412	-0.06238181
189	0x3d807fc8	0.06274372
190	0x3d4ddb8a	0.050258197
191	0xbdc0a60b	-0.0940667
192	0xbcf40f2a	-0.029792387
193	0xbd8f7597	-0.0700485
194	0x3caa0e45	0.020758757
195	0x3d17ef6d	0.03709357
196	0xbd91131d	-0.07083724
197	0xbccaa441	-0.024736525
198	0xbcdb6635	-0.026782135
199	0xbd9ffc2b	-0.07811769
200	0xbd760cf3	-0.060070943
201	0xbd68a316	-0.056796156
202	0x3d52090c	0.05127816
203	0xbd2d868b	-0.04236464
204	0xbd97abd5	-0.07405821
205	0xbc5d846d	-0.013520342
206	0xbd57e2c9	-0.052706514
207	0xbc3bd1b6	-0.011463573
208	0xbdb980f4	-0.09057799
209	0x3d59ac2f	0.053142723
210	0xbd9b2d48	-0.07576996
211	0x3d270ab4	0.04078169
212	0xbd8207bf	-0.06349134
213	0x3d051afd	0.03249644
214	0xbb00857a	-0.0019610808
215	0x3d6ef8bd	0.058342684
216	0x3bfa6980	0.007641971
217	0x3ce1c24a	0.027558465
218	0x3bb164c8	0.0054136254
219	0x3cb4d4d7	0.022074146
220	0xbd8886a6	-0.06666307
221	0x3d795028	0.06086746
222	0x3d087df9	0.033323262
223	0xbd7dce34	-0.06196423
224	0xbbe2f1df	-0.006925806
225	0xbd85e844	-0.06538442
226	0x3d722856	0.0591205
227	0x3c09c2a8	0.008408226
228	0xbd2588b9	-0.040413592
229	0x3d216cc2	0.03941036
230	0xbd9dccc7	-0.07705074
231	0x3da7ae05	0.081874885
232	0x3baa8ce5	0.005204784
233	0xbda18a53	-0.078877114
234	0x3c370093	0.0111695705
235	0xbd0b9d4f	-0.034085568
236	0x3cb4a72b	0.022052368
237	0x3d759595	0.059957106
238	0xbd1ee33f	-0.038790938
239	0xbd387181	-0.04503012
240	0x3d6c2a10	0.0576573
241	0xbd8ce63b	-0.068798505
242	0xbbab5ed8	-0.005229812
243	0x3d8c50e6	0.06851368
244	0xbb6ccdbb	-0.0036133367
245	0x3d77dbe7	0.06051245
246	0x3d0731ab	0.03300635
247	0xbb91afd9	-0.0044460115
248	0xbd58822f	-0.052858528
249	0xbcd07e3b	-0.025450816
250	0x3c48101d	0.012210873
251	0x3d3fb2ae	0.04680126
252	0x3d1a7a51	0.037714306
253	0x3d4faf85	0.050704498
254	0x3cbb506f	0.022865502
255	0xbd441a0f	-0.047876414

fc2.bias f4 [64]
0	0x3c8c3a29	0.017117577
1	0xbd32581e	-0.043541066
2	0x3dcf6e73	0.101284884
3	0xbdb0b5a9	-0.08628399
4	0xbd09488d	-0.033516455
5	0x3c01f238	0.007931285
6	0x3d1e9854	0.03871949
7	0x3d89d7e3	0.0673063
8	0xbcb19c1e	-0.021680888
9	0x3d9744ed	0.073861934
10	0x3d7e2352	0.062045403
11	0xbd77054d	-0.06030779
12	0x3d1ef704	0.03880979
13	0x3d4bbbda	0.049739696
14	0x3c96811a	0.018372107
15	0xbd32229c	-0.043490037
16	0x3cfc9ccf	0.03083649
17	0xbd4525ba	-0.048131682
18	0x3d2c0c6f	0.042004045
19	0x3d8ed844	0.06974843
20	0x3c4b97a7	0.012426293
21	0xbc86e694	-0.01646737
22	0xbd69ac48	-0.057049066
23	0xbcef90c0	-0.029243827
24	0xbcea2182	-0.02858043
25	0xbd7e76a6	-0.06212487
26	0x3d005628	0.031332165
27	0x3da528ef	0.08064448
28	0xbcfcd740	-0.030864358
29	0xbc6d5045	-0.01448447
30	0x3d51ddcd	0.051236916
31	0x3cd4cc8a	0.025976438
32	0xb8f6d22c	-0.00011769342
33	0xbd06d6ad	-0.032919575
34	0x3d82c48c	0.063851446
35	0x3d20c10d	0.039246608
36	0x3afb1013	0.0019154571
37	0xbd0c3a37	-0.034235206
38	0x3dac48bb	0.0841231
39	0x3ce2f96b	0.027706822
40	0x3c896eea	0.01677652
41	0xbd87cf6e	-0.06631361
42	0xbd40de84	-0.047087207
43	0x3dd1015e	0.10205339
44	0x3d951989	0.07280261
45	0xb994f6a7	-0.0002841253
46	0xbc6a113e	-0.014286337
47	0x3d9932bc	0.0748038
48	0xbd982a2e	-0.0742992
49	0x3d016d51	0.031598393
50	0x3b4a11a6	0.0030833273
51	0x3dbdef88	0.092742026
52	0xbcf173f5	-0.029474238
53	0xbd0813f5	-0.033222158
54	0x3d44a6de	0.0480107
55	0xbcb0cb8a	-0.02158143
56	0x3cb87c72	0.022520278
57	0x3d50fb94	0.051021174
58	0x3db753b0	0.08951509
59	0x3c130389	0.008973011
60	0x3d9cb620	0.07651925
61	0x3d97f676	0.074200556
62	0xbd45a894	-0.04825647
63	0xbd827387	-0.06369691

fc3.weight f4 [3, 64]
0	0x3e0c04f9	0.13673772
1	0xbc740fd4	-0.014896352
2	0xbc9429bb	-0.018086305
3	0x3da43022	0.08016993
4	0xbd9045b8	-0.07044548
5	0x3e71c055	0.23608525
6	0x3c3f29ea	0.011667708
7	0x3d63be04	0.055601135
8	0xbded6daf	-0.11593186
9	0xbd8b16a4	-0.06791428
10	0xbcdc6399	-0.02690296
11	0xbe16e660	-0.14736319
12	0x3dcd404e	0.10022031
13	0xbd66c6b3	-0.056341838
14	0xbe0f8bdd	-0.14018197
15	0xbc1c188a	-0.009527335
16	0xbc18db52	-0.009329634
17	0x3d95e775	0.073195376
18	0xbe14991e	-0.14511535
19	0x3e1f89c8	0.15579903
20	0x3d6aef5b	0.057357173
21	0x3e448d65	0.19194563
22	0x3dedda52	0.11613907
23	0xbd56b9c5	-0.052423257
24	0x3dd39a1e	0.1033213
25	0x3e30d435	0.1726845
26	0x3d7043be	0.058658354
27	0xbd6b5fef	-0.057464536
28	0x3d800b82	0.06252195
29	0x3db012e1	0.08597351
30	0x3db0ac38	0.08626598
31	0x3dbd6d8b	0.09249409
32	0x3e3038bf	0.17209147
33	0xbd4419a7	-0.047876026
34	0xbe17fdbe	-0.14842889
35	0x3dc2749e	0.09494899
36	0x3dc7d581	0.097575195
37	0x3df6462d	0.12025104
38	0xbe557ee8	-0.20849192
39	0x3d29f4cf	0.041493233
40	0xbd31638c	-0.043307826
41	0x3affa90c	0.0019505336
42	0xbd2e20e4	-0.042511836
43	0xbe0ea299	-0.13929214
44	0x3e55a1df	0.2086253
45	0x3e1c0646	0.15236768
46	0x3d148d9c	0.03626786
47	0xbd9a00a8	-0.075196564
48	0x3c890fb0	0.016731113
49	0x3dc685d1	0.09693492
50	0x3da55ebf	0.08074712
51	0xbe1e49b8	-0.15457809
52	0x3df06670	0.117382884
53	0x3e3265fe	0.1742172
54	0x3de9823a	0.11401792
55	0xbdf4a7f3	-0.11946096
56	0x3dcf6ea8	0.10128528
57	0xbdd9c966	-0.10634117
58	0x3dcf0d93	0.10110011
59	0x3cd55d90	0.02604559
60	0x3d1a81c0	0.037721395
61	0xba32e6df	-0.00068245636
62	0xbdb49451	-0.088173516
63	0xbdad9e78	-0.08477491
64	0xbdda0105	-0.10644726
65	0x3de51987	0.111865096
66	0xbdfdee13	-0.12398925
67	0xbc5ed324	-0.013600145
68	0xbde97ec6	-0.11401133
69	0xbdb6f25d	-0.08932946
70	0xbd551043	-0.05201746
71	0xbe099578	-0.13435924
72	0x3e4ccc4f	0.19999813
73	0xbd833da4	-0.064082414
74	0xbdee2840	-0.11628771
75	0xbdcb30a8	-0.0992139
76	0xbe29587d	-0.16537662
77	0x3ddfd8dc	0.109300345
78	0x3a222c6c	0.0006186429
79	0xbe0a44c1	-0.1350279
80	0xbca10f67	-0.019660665
81	0x3d964bff	0.07338714
82	0x3e06faa6	0.13181552
83	0xbe332197	-0.17493282
84	0x3be92206	0.0071146516
85	0xbdddb670	-0.10825813
86	0x3cafa930	0.02144298
87	0xbe0094c2	-0.12556747
88	0xbc6aa125	-0.014320646
89	0xbe4d5d07	-0.20055018
90	0x3d80e293	0.062932156
91	0x3df5edf8	0.120082796
92	0x3ddfedd9	0.10934038
93	0xbddc64f4	-0.10761443
94	0x3da63e41	0.08117343
95	0x3d840352	0.06445946
96	0xbe06ccf5	-0.13164122
97	0xbd415dbd	-0.047208536
98	0xbb4a04ae	-0.0030825543
99	0x3da12198	0.078677356
100	0x3d69baef	0.05706304
101	0xbda4000b	-0.08007821
102	0x3e16f7a0	0.14742899
103	0x3d1d563d	0.03841232
104	0x3b9afda0	0.0047299415
105	0x3dcee056	0.101013824
106	0xbe21f642	-0.15816596
107	0x3d78c138	0.060731143
108	0xbdbcb1b0	-0.09213579
109	0xbe4189bd	-0.18900199
110	0x3caa60f8	0.020798191
111	0x3db215f7	0.08695596
112	0xbe114db2	-0.14189795
113	0x3db44892	0.08802904
114	0xbd71cf4c	-0.059035584
115	0x3dca88a2	0.09889342
116	0xbd56723d	-0.05235504
117	0xbde131ab	-0.109958015
118	0x3d7491ba	0.05970929
119	0x3d1342ee	0.0359525
120	0x3de6849f	0.11255764
121	0xbc8c8c48	-0.017156735
122	0xbe0f2e7b	-0.13982575
123	0x3cd8fa48	0.02648653
124	0xbdf8b020	-0.12142968
125	0xbdf3d09f	-0.11905026
126	0x3ddd3d87	0.10802751
127	0x3bd890b7	0.006609048
128	0xbd50f0fa	-0.051011063
129	0x3d32f471	0.04369015
130	0x3d833707	0.0640698
131	0xbda75853	-0.081711434
132	0xbdcd0678	-0.100109994
133	0x3d693a46	0.05694034
134	0x3ddfeeb0	0.10934198
135	0xbda695fd	-0.08134077
136	0x3d269911	0.04067332
137	0x3d804e5e	0.06264947
138	0x3dea7172	0.11447419
139	0x3d8fdaf8	0.07024187
140	0x3d10f00e	0.035385184
141	0xbde47fa8	-0.11157161
142	0x3d824baa	0.06362088
143	0x3cf6fdff	0.030150412
144	0xbd419d54	-0.04726918
145	0xbda5d993	-0.080981396
146	0xbc910938	-0.017704591
147	0xbdd1dee2	-0.1024759
148	0x3b9cf9cd	0.0047905208
149	0x3d920e6d	0.07131658
150	0xba1fd300	-0.000609681
151	0x3ddb7246	0.10715155
152	0xbcedf194	-0.029045857
153	0xbd826ca1	-0.063683756
154	0xbc18800f	-0.009307875
155	0xbc4884d3	-0.012238699
156	0x3e08b8d4	0.13351756
157	0x3d7a062c	0.061041042
158	0xbd33b195	-0.043870527
159	0xbdaadab6	-0.08342497
160	0xbdb07b91	-0.086173184
161	0x3cb5eace	0.02220669
162	0x3c9091d5	0.017647663
163	0xbcd22cb8	-0.02565609
164	0x3bf8ea3c	0.0075962823
165	0x3cfa550a	0.030558128
166	0x3d879a76	0.06621258
167	0x3d6125e7	0.054967787
168	0xbd90af0e	-0.07064639
169	0x3d6ff8b6	0.0585868
170	0xbc0dacf4	-0.008647192
171	0x3e04ecbf	0.12980936
172	0x3c508168	0.012726165
173	0x3c39b566	0.011334753
174	0x3d7ce02c	0.061737224
175	0x3d9d29a3	0.07673957
176	0x3c8f28be	0.017475482
177	0xbd04974a	-0.032370843
178	0x3deee002	0.1166382
179	0x3e08a353	0.13343553
180	0x3ddf7d28	0.109125435
181	0x3d9f468d	0.07777128
182	0xbde04a93	-0.10951724
183	0x3d9682df	0.073491804
184	0x3cb24d3e	0.021765348
185	0xbdda7046	-0.10665946
186	0x3d2e8bf3	0.042613935
187	0x3db60506	0.08887677
188	0xbd0a5e81	-0.033781532
189	0x3d42f753	0.047599148
190	0xbcf7cf5d	-0.030250246
191	0xbc93cb81	-0.018041374

fc3.bias f4 [3]
0	0xbd785fc6	-0.06063821
1	0xbdf28d7c	-0.11843392
2	0xbdb6d178	-0.08926672
