pickles/mpl_ph/mlbb_ann_model.pth (torch, 13774 bytes, 6 tensors)

fc1.weight f4 [64, 9]
000000 5b d1 20 be d2 0a 93 3c cb fa c4 3e 1b d8 c9 3e
       -0.15704863 0.017949495 0.3847259 0.39422688
000010 5f 8a 2b 3e f9 e5 3c 3d 75 da fc 3d 12 e8 04 be
       0.16752003 0.046117757 0.12346355 -0.12979153
000020 de 91 bd bc 5a da a7 be 2b 94 22 bd c3 d2 2c 3e
       -0.023140844 -0.32783777 -0.039692085 0.16877274
000030 16 02 9b bc 08 cf 4c be b6 aa e2 bd f6 c6 2c 3e
       -0.018921893 -0.20000851 -0.11067717 0.16872773
000040 64 be a7 be e6 dd 9c be 99 c1 3e bd 88 bf 54 3d
       -0.32762444 -0.30638045 -0.046571348 0.05194047
000050 6e 37 8c 3e 7c 22 1a be de b6 00 bc b8 18 9d bd
       0.2738604 -0.15052217 -0.007856099 -0.0767073
000060 e6 a4 d1 bd b5 21 21 3d 3e b0 3f be eb d8 aa 3e
       -0.1023653 0.039338786 -0.18719575 0.3336862
000070 e7 d1 a5 3b 63 1a 7a be fd 95 44 be ca ae ee 3c
       0.0050604227 -0.24424128 -0.19197841 0.02913608
000080 86 48 b9 3e f6 2e 25 be ef 39 3d 3e 10 17 1c bd
       0.36188143 -0.16131195 0.18479131 -0.03810793
000090 9b d7 80 be ea 64 a4 3e 17 ab 92 be 44 40 89 3e
       -0.25164494 0.3210824 -0.28646156 0.26806843
0000a0 01 fc 24 bd 07 b4 97 3d 92 32 6e 3e 52 7d 5b 3e
       -0.040279392 0.07407384 0.23261479 0.21434525
0000b0 51 dc 8e be f0 f0 28 be 49 db 2d 3e 9f d4 dc bd
       -0.27902463 -0.1649816 0.16978182 -0.10782742
0000c0 8d a1 25 3e 54 f4 1d be 56 b3 0b 3e cc 0b 97 3e
       0.16174908 -0.15425235 0.1364263 0.29501188
0000d0 27 ab 07 be 1c c0 91 3e 07 12 15 be d6 9a 09 bb
       -0.13248883 0.2846688 -0.14557658 -0.002099683
0000e0 e9 b9 a9 3e 60 d8 b1 3e 9a 05 cd bb c1 fe b7 3e
       0.3314965 0.34735394 -0.0062567713 0.3593655
0000f0 d9 7a d1 3d ff c0 3b bd af 03 b4 3e 96 c7 40 3e
       0.102285095 -0.045838352 0.3515906 0.18826136
000100 ca b6 9c 3d f9 e8 46 be 98 d1 78 be a7 b8 5e be
       0.07652052 -0.1942481 -0.24298704 -0.21750127
000110 41 c2 f1 3c 64 01 1a 3e 32 01 8e be 5a 9b f0 3d
       0.029511573 0.15039593 -0.27735287 0.11748381
000120 15 f1 f1 3d 9d aa 1c be 6b 3a d8 bd 4f b0 25 3e
       0.11813561 -0.15299459 -0.10558017 0.16180538
000130 15 13 86 be 76 80 8e 3e 63 3a 28 be 9b ca 8f be
       -0.26186433 0.27832383 -0.16428523 -0.28084263
000140 91 83 f8 bb 3c 30 b1 3e 84 fa dd 3d e8 28 2a 3e
       -0.0075840433 0.34607112 0.10838798 0.16617167
000150 fe bb 81 3e 49 d6 22 3e 4e 37 8a bd c8 7e db bd
       0.2533874 0.15902056 -0.0674883 -0.10717541
000160 88 15 95 3e 1a 3c 56 3e bb ec eb bd 79 40 d3 3b
       0.2911799 0.20921364 -0.11519762 0.0064468947
000170 5f b3 cf bd b4 f5 73 3e 6c 1a 30 be ca b6 79 be
       -0.10141634 0.23824197 -0.17197579 -0.24386135
000180 42 3f a4 3e e0 17 21 be 7f 92 e9 3d 14 0f 9f bc
       0.32079512 -0.15731764 0.11404895 -0.01941637
000190 f2 f7 0a 3e f9 c8 ed 3d 3e d1 6d bc 38 38 9e be
       0.13571146 0.11610598 -0.014515219 -0.30902267
0001a0 91 18 63 3e 53 b5 1c 3e f7 16 cd bd be 91 0c be
       0.2217734 0.15303545 -0.10014146 -0.13727471
0001b0 9b 4b 0b 3d a8 56 43 be e7 c2 70 3e 9c 3e 9e bd
       0.03400765 -0.19076025 0.2351185 -0.077267855
0001c0 c7 57 73 be ce 79 be 3e d5 13 a0 be af ce 1a bd
       -0.23763953 0.37202305 -0.3126513 -0.037794765
0001d0 3f 03 ce 3c 6b 3b a8 3e 78 da 96 3e 3f 9a 63 be
       0.025148032 0.32857832 0.29463553 -0.22226809
0001e0 08 28 9b be 75 91 90 3e 25 2d b7 3e ec da 23 be
       -0.3030398 0.28235975 0.3577663 -0.16001481
0001f0 61 9a 31 3e ad 89 44 be fc 00 d3 bd d4 39 63 bd
       0.17344047 -0.19193144 -0.10302922 -0.05547507
000200 28 9c 38 3e c3 a1 38 be 19 96 08 3c 6f 5a 7a 3e
       0.18028319 -0.18030457 0.008336567 0.2444856
000210 16 41 cc bd 17 b9 33 bd db 90 44 3e 24 66 a5 3d
       -0.09973352 -0.043877687 0.19195883 0.080761224
000220 d2 e2 9b be 20 b7 a6 bd 10 12 fc 3d ac 5e 84 3d
       -0.30446488 -0.08140397 0.12308133 0.0646337
000230 d0 70 09 bd a2 c6 8b 3e 08 f5 e1 bd e7 2f 7f be
       -0.033554852 0.27299982 -0.11033064 -0.24920617
000240 ff b3 84 be 46 d9 0d 3e 86 ec af 3d 00 00 b2 37
       -0.25918576 0.13852414 0.08590035 2.1219254e-05
000250 bb bb 3b be 26 4b 96 be 5e bb 05 be 23 f1 a1 be
       -0.18333332 -0.2935421 -0.13059756 -0.31629285
000260 26 7f af bd 16 47 12 3e ab 34 08 bb 1b 7f 45 3e
       -0.085691735 0.1428493 -0.0020783346 0.19286768
000270 36 e6 f2 bd e0 ef 26 bd 53 7d a0 be f0 7f a9 bd
       -0.118603155 -0.040756106 -0.31345615 -0.08276355
000280 30 96 26 3e 9b 14 55 be 7d f0 8e be 5e 27 fd 3d
       0.1626823 -0.20808642 -0.27917853 0.12361024
000290 ce e8 5e be 08 19 24 3e c7 14 6b be 03 e7 3b 3e
       -0.21768495 0.16025174 -0.22957145 0.18349843
0002a0 34 05 71 3e c1 9e cd 3d f2 88 31 3d 4d 0d 90 3e
       0.23537141 0.100400455 0.04334349 0.28135148
0002b0 e7 08 98 be 66 3f 2a 3e 8e ce b1 3e ed 12 07 3e
       -0.29694292 0.16625747 0.347279 0.13190813
0002c0 34 f2 1e 3e 33 93 45 3e 0a c0 8b be 99 5c 77 3d
       0.1552208 0.19294433 -0.27294952 0.060391042
0002d0 70 12 09 3e 16 e2 16 bd 16 b2 a7 3e 9b 8d 25 3e
       0.1338594 -0.036836706 0.32753056 0.161673
0002e0 10 1e 99 3e f2 4c 99 be 9b a0 94 be 6b 58 02 be
       0.29905748 -0.29941517 -0.29028782 -0.12729041
0002f0 6f bd 94 be 5a 3b 89 bd 17 3b 53 be 93 1d af 3e
       -0.29050776 -0.067007735 -0.2062801 0.3420225
000300 7a 5a dc be f1 58 ad 3e f9 91 0c 3d 9d a8 49 be
       -0.43037778 0.3385692 0.034318898 -0.19693227
000310 86 7d c6 3e 7c a9 47 be 21 95 c2 bc a3 da 9e bd
       0.38767642 -0.19498247 -0.02375275 -0.077565454
000320 67 08 88 3e 87 24 62 3e 8f 05 76 bc f4 ff 99 be
       0.2656891 0.22084247 -0.015015974 -0.3007809
000330 2c 84 08 be 6c 28 9b 3e 75 c5 9c bd 8e a0 fe bd
       -0.1333167 0.30304277 -0.076548494 -0.12432967
000340 7e 1e 8f be be f4 68 3e 36 68 4c bd e1 08 1b bd
       -0.2795295 0.22749612 -0.04990407 -0.037850264
000350 63 09 15 be cb cd 7c be a3 d9 97 3c ab da 18 be
       -0.14554362 -0.24687879 0.018536394 -0.14927165
000360 13 b2 46 3e 4c cd 0d be 90 b6 ca bd 34 e9 2f 3e
       0.19403867 -0.13847846 -0.09898102 0.17178804
000370 ed 2d 13 be 20 fe 99 be 2a a0 d1 bd c6 a6 96 3c
       -0.14372988 -0.30076694 -0.10235627 0.01839007
000380 f5 b9 e1 bd bb bc a9 be 5b 84 2a 3e 3d dc a1 bd
       -0.110217966 -0.33151802 0.16652052 -0.07903335
000390 65 ac e3 bd 6c cc 88 3d 7c 73 20 be bf 19 1e be
       -0.11116866 0.066796154 -0.15669054 -0.15439509
0003a0 9b 8c fd bd e9 8d 84 3e 30 7d 93 3d a7 31 de 3c
       -0.12380334 0.2588952 0.07201612 0.027123285
0003b0 27 5e 8b 3e f3 a5 b0 be 88 76 b0 bd 56 8d df 3d
       0.2722027 -0.3450161 -0.08616358 0.109156296
0003c0 23 d8 c2 bd 90 d5 6e bc 2f 73 9d 3e 4b 34 25 be
       -0.09513881 -0.014577284 0.3075194 -0.1613323
0003d0 87 01 99 3e 7f 90 30 be 5b fc ba 3e 81 2f b5 3e
       0.29883978 -0.17242621 0.36520657 0.35387805
0003e0 12 6d 89 3e 9a f5 67 3e a3 d2 39 3e fc 30 29 3e
       0.26841027 0.22652283 0.18146758 0.16522592
0003f0 40 e7 41 3d cb b9 5c be 70 18 4e 3e 0b b7 9e 3d
       0.047339678 -0.2155525 0.2012651 0.077497564

fc1.bias f4 [64]
000000 e5 9e 81 bd a6 c6 49 be bd e1 1c 3e 21 d7 ab 3d
       -0.06329135 -0.19704685 0.15320487 0.08390642
000010 6b 54 6b bc 5a 61 fc bd ac bf b6 3d 2e 2d 03 3e
       -0.0143633885 -0.12323256 0.08923277 0.12810203
000020 b1 b3 b3 3e 22 bc 54 be 44 8a 3c 3e 0a 97 9a 3e
       0.3509803 -0.20774892 0.18412119 0.3019336
000030 be 05 b5 3d 70 11 c8 3e 7c f2 e8 3d 5e 78 46 be
       0.08838986 0.39075804 0.11374375 -0.19381854
000040 38 d8 50 be 84 47 84 be d3 62 3b 3e ef 81 a4 3e
       -0.20394981 -0.25835812 0.18299417 0.3213038
000050 24 da 9b be b2 a9 30 3e 92 a4 bc 3e 0d 8c a5 bc
       -0.30439866 0.17252234 0.36844307 -0.020208383
000060 fc a1 bc 3e 7d 45 67 3e ff e6 2a 3e 81 51 c4 3e
       0.36842334 0.22585101 0.1668968 0.38343433
000070 0a a7 89 be bb 93 47 3e 8e ad 0f be ac 36 9f be
       -0.26885253 0.19489948 -0.1403105 -0.310964
000080 fd 9f fa bd 63 31 ac 3d e6 54 19 3e ae 09 b3 be
       -0.122375466 0.08407857 0.14973792 -0.34968323
000090 80 60 d2 3e 49 d5 07 be 50 66 97 3e 45 2b 96 3e
       0.4108925 -0.13264956 0.29570246 0.29329887
0000a0 09 0a 20 3e bf 4e b0 3d 2d 1f 27 3e 42 99 ff 3d
       0.15628828 0.086087696 0.16320486 0.124804035
0000b0 5d 26 4d 3e 55 e3 18 3e 7f fb 5f 3e 9c 82 fd 3d
       0.20034166 0.1493047 0.21873282 0.123784274
0000c0 f0 7c 6e bd 57 70 e6 3d 6f 86 bb 3d ee cd 2d be
       -0.05822462 0.11251896 0.091565005 -0.16973087
0000d0 f7 77 fd 3c 96 a1 25 bd 0c ee 93 3e 88 c8 77 3d
       0.030940993 -0.040437303 0.28892553 0.060493976
0000e0 60 7a aa be 5f 63 2a 3e c4 6c 64 3d 5a 53 0c be
       -0.3329649 0.1663947 0.05576779 -0.13703671
0000f0 3f 30 b0 3e 10 f8 66 be 4d 84 51 be c8 6c b7 3e
       0.3441181 -0.22555566 -0.20460625 0.3582518

fc2.weight f4 [32, 64]
000000 a3 ed 21 3d 24 dc d8 3d 3b 16 da bc 2b 35 06 3e
       0.03953327 0.105888635 -0.026621928 0.1310622
000010 df 3b 43 bc 82 80 81 3d a8 88 d5 3c 1f 6c 2b bc
       -0.01191613 0.06323339 0.02606614 -0.01046279
000020 25 b4 2b 3d 20 bb ba bc 92 14 e4 bb e9 f0 59 3d
       0.041919846 -0.022794306 -0.00696046 0.053208265
000030 e5 c9 01 3e af 17 d3 bc da 22 8b bd b8 fa a5 bd
       0.12674673 -0.02576813 -0.06793757 -0.081044614
000040 30 d2 51 3c 48 2a 2d bd 71 4f 2c 3b d9 68 80 bd
       0.01280646 -0.04227665 0.0026292468 -0.06269998
000050 b0 35 74 3d 2b 53 b6 3c 43 fd b0 bd b8 cf 10 3d
       0.059621513 0.022256454 -0.08642056 0.035354346
000060 3f de ff bd 94 88 70 3d 36 ba 6a bc 3d 1c 8a bc
       -0.12493562 0.058724 -0.014326623 -0.016859168
000070 24 24 f0 3d 50 6a ab bd 89 79 8d bc 26 f5 fd 3d
       0.11725643 -0.08369887 -0.017269867 0.12400274
000080 22 be 87 3c af 7e 2a 3d ee 80 b7 bd 90 0e 71 3b
       0.016570155 0.04162472 -0.08960138 0.0036782362
000090 d3 23 53 3c 90 c9 e1 bd 2a 2c 38 3d 17 16 7b bd
       0.012886959 -0.11024773 0.044963993 -0.061300363
0000a0 a4 45 9d bd f8 ab 28 3d 31 03 54 3d 46 fa ff bd
       -0.076792985 0.041179627 0.051760856 -0.12498908
0000b0 4b 93 d4 bd 35 39 30 3d ab 49 c1 bd 11 3d c5 bd
       -0.103796564 0.043023307 -0.09437879 -0.09630788
0000c0 3d de 1c bd 65 15 3e bd cc 5b 8f bd de ba ed 3d
       -0.03829788 -0.046407122 -0.06999931 0.11607908
0000d0 08 0f 5d bb 5e 6f 04 bd fe 88 2a 3d 50 71 d8 bd
       -0.0033730883 -0.03233277 0.041634552 -0.10568488
0000e0 5e d4 99 3c ee 2d d9 bd 41 fe 0f be 61 6d 33 bd
       0.018778022 -0.106044635 -0.14061834 -0.043805484
0000f0 69 8e 11 be 6c f1 ed bd dd 32 65 bd c9 27 9f bb
       -0.14214481 -0.11618313 -0.05595671 -0.0048570377
000100 08 6d 7f bd 6a c9 d7 bd 20 76 7c 3d dc f9 91 bd
       -0.06235984 -0.105364636 0.06163609 -0.07127735
000110 70 6a 78 3d 71 cc 25 bc 26 44 61 bd 5a db bf 3d
       0.06064838 -0.010119543 -0.054996632 0.0936801
000120 38 e9 f4 bd 6c 8d c8 bc 93 bb 69 bd 13 86 e1 bc
       -0.119585454 -0.024481498 -0.05706365 -0.027529752
000130 3a 9e c1 3d 65 ba 0f bd b8 78 cc 3d 78 22 9b 3d
       0.094540074 -0.03508987 0.09983963 0.07574934
000140 d0 ea 65 bd b4 82 7c 3d 64 d2 1f 3c fd 7f 83 3d
       -0.056132138 0.061648086 0.009754751 0.06420896
000150 d4 7c e6 bd f0 ff 72 3d 59 8a 79 3d 5e ee e1 bd
       -0.11254278 0.059326112 0.060922954 -0.11031793
000160 49 3b f7 bc 4b fe db bc 34 2f 48 bd b4 b1 91 3d
       -0.030179637 -0.026854655 -0.04887314 0.07113972
000170 88 78 bb bd 71 70 aa 3d e1 ae a3 bd 8c 5b 82 bd
       -0.09153849 0.08322228 -0.0799234 -0.063651174
000180 2c f4 0a be 9c 06 f7 3d 90 4e a4 bd c0 b3 cd bd
       -0.13569707 0.120618075 -0.08022797 -0.1004405
000190 17 e0 77 bd fb df e9 3d 12 c6 18 bb 08 72 67 bd
       -0.060516443 0.11419674 -0.0023311418 -0.056505233
0001a0 e0 ba 0d bd 72 0c e2 bd c0 e5 fb 3c 27 b4 66 bd
       -0.034602046 -0.1103753 0.030749202 -0.05632415
0001b0 41 a6 44 3d fc bf a7 3d 80 12 9d 3a b7 52 9c bd
       0.048010115 0.08190915 0.0011983663 -0.07632964
0001c0 2e d2 d4 bd 5a 9a b6 bd f5 7a d8 bd 18 ad ca 3d
       -0.10391651 -0.08916159 -0.10570327 0.09896296
0001d0 e9 4b e4 3d 5b 67 b9 bd d8 93 07 be 98 07 d5 bc
       0.11147291 -0.090529166 -0.13239992 -0.026004598
0001e0 f1 d6 bb bd 45 f2 2b 3d 23 7d 44 bc 9d a8 c8 bc
       -0.09171856 0.041979093 -0.011992726 -0.024494464
0001f0 83 a5 c2 3d 28 fe a0 3d 60 72 eb bd 5b 9e c8 3d
       0.09504225 0.078609765 -0.11496425 0.09795829
000200 0a ab e8 3d 66 82 98 3d 0c 07 4a be 0c 12 da bd
       0.11360748 0.074467465 -0.1972925 -0.106479734
000210 21 c6 36 3e 70 72 69 3d 12 01 b2 3d d0 67 30 3d
       0.17849018 0.0569939 0.086916104 0.043067753
000220 2a d0 96 3d 3b fc 42 3d e9 57 82 bb 8d ca 0c 3d
       0.07363923 0.047603827 -0.003977765 0.034372855
000230 2d af 6f be 99 b8 c6 3d b8 ed 98 3c d5 f4 cc bd
       -0.23406668 0.09703178 0.01866804 -0.100076355
000240 8c 52 68 3d 30 c2 91 3d 18 f1 53 3d 12 c4 3e 3e
       0.056719348 0.071171165 0.051743597 0.18629482
000250 e4 98 e5 bd 8e 2b 22 be c9 f3 18 3e ec a3 d2 3d
       -0.11210802 -0.15836927 0.14936747 0.10285172
000260 81 85 6d 3d 56 ef 42 3d 66 f5 1c be 3c 5f fb bb
       0.057988647 0.04759153 -0.15327987 -0.007671265
000270 44 a7 a0 bd ef 4f c2 bc d7 62 9c 3d 74 8b e2 3c
       -0.078444034 -0.023719756 0.0763604 0.027654387
000280 c9 30 d2 3b c4 2c 5e be e5 72 85 3d 60 c6 41 be
       0.006414507 -0.21696764 0.06516055 -0.1892333
000290 b7 c1 32 3e a0 0a 56 be b8 58 75 3d dc 6d 9d 3d
       0.17456709 -0.2090249 0.059899062 0.0768697
0002a0 1a 5f 8c 3d 7e e7 f9 3d 84 25 87 3c 51 85 66 3e
       0.06854077 0.12202357 0.016497381 0.22511794
0002b0 29 ba 39 3e 52 df 24 3d 04 23 1d 3e 2d f5 1f bd
       0.1813742 0.040252037 0.15345389 -0.039052177
0002c0 fc 4e 18 be f7 08 fc 3d f9 ea 9d 3d 90 0d 85 3d
       -0.1487388 0.123063974 0.07710833 0.064967275
0002d0 ae f6 0e 3e 82 3b c9 bd 02 7b 67 bd ef 33 36 3e
       0.13961288 -0.09825803 -0.056513794 0.17793249
0002e0 6b e5 4a bd c5 1a 08 3e 8c 85 3f bc d6 68 41 3e
       -0.049535196 0.13291462 -0.011689555 0.18887648
0002f0 5a 74 c8 3d 96 ee ce 3d 30 17 95 3d d0 0a 32 3d
       0.09787817 0.101041004 0.07279813 0.043467343
000300 7f 06 cf 3d 86 ec 93 bd ad 31 b5 bd cc 99 2f 3b
       0.10108661 -0.07222848 -0.088473655 0.002679455
000310 ba f1 f6 bb 2d 24 84 3c 59 57 06 be c0 c9 dd bb
       -0.0075361403 0.016130531 -0.13119258 -0.0067684352
000320 c7 c0 5a 3c 1c 72 dd bd 66 85 21 3d 01 9c d5 bd
       0.013351626 -0.1081278 0.03943386 -0.10430146
000330 f1 d8 8e bd 58 49 d1 bc cb 5f c1 bd 86 1c 0b 3d
       -0.06974972 -0.025547668 -0.09442099 0.03396275
000340 80 00 f1 bc e0 8e d2 3d ae 7d 45 bd 11 61 a8 3d
       -0.029419184 0.102811575 -0.04821556 0.08221639
000350 2c 17 45 bd ea 85 d8 3d 45 42 45 bd d2 07 1a 3d
       -0.0481178 0.10572417 -0.048158903 0.037605114
000360 62 de c4 3b 62 af 03 be 49 42 f7 bd f2 c8 b5 bd
       0.0060079554 -0.12859872 -0.1207319 -0.08876218
000370 10 dc 36 bd c5 7e 06 be 28 35 13 bc c6 a3 c3 bd
       -0.04464346 -0.13134296 -0.008984841 -0.09552722
000380 4a 6e fd bd 38 0b 31 3d 03 b7 9e 3c 75 b5 d0 bc
       -0.123745516 0.04322359 0.019374376 -0.02547715
000390 eb 64 93 bc bf 75 90 bd 35 80 b6 3d d4 e5 c3 3d
       -0.017992457 -0.07053708 0.08911172 0.095653206
0003a0 8e e5 ec bd 2b 15 48 bd df 7e a2 bb b8 48 42 bd
       -0.115672216 -0.048848312 -0.004958972 -0.04743263
0003b0 ce 3d 9f 3c 0c 14 2f bd 54 6e d8 3b 59 72 5e bd
       0.01943865 -0.042743728 0.006604949 -0.05430827
0003c0 a2 8b 95 3d 3e 58 99 bd 04 45 76 bc 20 f4 2d bc
       0.073020235 -0.07487534 -0.015031103 -0.010617286
0003d0 c2 bc b4 bd 83 ba 6c bc 48 22 c5 ba 3d 1c fc bd
       -0.08825065 -0.014448765 -0.0015040124 -0.123100735
0003e0 47 d6 b3 3d 31 83 a2 3d 12 69 85 3c 00 0e b9 3d
       0.087811045 0.07935179 0.016285453 0.090358734
0003f0 f3 db be 3a 9a c3 cd bd a8 bb da bd a7 d8 09 3c
       0.00145614 -0.10047074 -0.10680324 0.00841347

fc2.bias f4 [32]
000000 30 24 c7 3d d3 d1 f3 bd 58 b7 37 3e 16 1c aa 3c
       0.09723699 -0.11905255 0.17941034 0.020765346
000010 ff a8 ca bd 0d 6a 8b bd 46 1b 8e bd aa 0f 6f 3d
       -0.09895515 -0.06807337 -0.06938796 0.058364548
000020 16 f4 cb 3d 15 03 90 3d a8 02 fa bd f8 4d 34 bd
       0.09958665 0.07031838 -0.12207538 -0.04401967
000030 31 bd c3 bd af 44 ce 3d 60 08 e9 bd 06 27 ee ba
       -0.0955757 0.10071694 -0.113785505 -0.0018169589
000040 05 fd 27 3e 44 ab 1c 3e d8 60 20 3e 49 07 36 bd
       0.16405113 0.15299708 0.15661943 -0.04444054
000050 b9 8e 2b bd 68 25 c7 3d 1c a6 05 3d 2a 17 91 bd
       -0.041884158 0.097239316 0.032629117 -0.07084496
000060 10 2c 5f 3d 38 bd ff bc 86 72 a4 bd 88 a0 f1 3c
       0.05448538 -0.031218156 -0.08029656 0.029495493
000070 86 48 ec 3d 62 82 cc bd 15 57 07 3e 18 50 85 3c
       0.1153727 -0.09985806 0.13216813 0.016273543

fc3.weight f4 [2, 32]
000000 ed e4 3f 3d 86 fc 25 3e b6 42 81 bd 48 cb 31 3d
       0.04684918 0.16209611 -0.06311552 0.043406755
000010 f7 07 1b be 24 d8 c4 3d 41 cc a6 bd fc c2 27 3e
       -0.15139757 0.09611538 -0.08144427 0.16382974
000020 d7 80 a4 3d 07 de 4a 3e 71 41 34 be 5b fe cb bc
       0.08032387 0.19811259 -0.17603089 -0.02490156
000030 ad 58 d1 bd 20 0b 09 3e 39 59 f5 3d 3d 53 0e be
       -0.10221992 0.1338315 0.119799085 -0.1389894
000040 c4 bc 50 3e 2c cd 27 3e 6d c3 9f bd 39 b7 25 3e
       0.20384508 0.1638686 -0.078009464 0.16183175
000050 42 7f e0 3d 75 5c a3 3d 4a fe 2b 3e 2e 81 3d 3b
       0.109617725 0.07976619 0.16796222 0.0028916108
000060 22 b8 09 3e 47 86 40 3e 81 eb 22 be 48 04 42 3d
       0.13449147 0.18801223 -0.1591015 0.047367364
000070 83 b7 55 3e 6d 7e d5 3d ed bd 1c 3e 8e bd 0e be
       0.20870785 0.104245044 0.15306826 -0.13939497
000080 83 9f a5 bd d3 c6 2b bd e8 29 2a 3e 01 16 24 be
       -0.08087065 -0.04193766 0.16617548 -0.16024019
000090 4f b5 12 be 07 35 ae 3d 4d c7 2f 3c c4 e5 91 3d
       -0.14326976 0.08506208 0.010728669 0.071239024
0000a0 7e c3 12 3e b2 db 74 3d 40 a5 cf bd 1e ff bc 3d
       0.14332387 0.05977983 -0.10138941 0.09228347
0000b0 27 c0 0b be 79 3a aa 3d a5 04 0c be d7 8a 48 3e
       -0.13647519 0.08311934 -0.13673647 0.19584213
0000c0 4b bd 60 3d 79 61 c8 bc ce 5e 52 3e 5a ec 1a 3e
       0.054868024 -0.024460541 0.20543978 0.15129223
0000d0 ac 51 4e 3e de 1e 33 3e b8 23 1a be 6e 12 8d 3d
       0.20148343 0.17492244 -0.15052688 0.06888281
0000e0 0c 3f 86 be c1 aa 4b 3e 09 6c 15 be b9 e3 61 bc
       -0.26219976 0.19889356 -0.14591993 -0.0137872035
0000f0 a7 2b c2 3d 07 0a e6 3d 65 5f 92 3d 13 90 0e 3e
       0.09480982 0.11232381 0.07147101 0.13922147

fc3.bias f4 [2]
000000 2c ad 03 3d 88 43 53 3c
       0.03214757 0.012894519
